Torchvision_Datasets/Cats_Vs_Dogs_Pytorch/CvD_pytorch_model.pt (torch_old, 216376 bytes, 8 tensors)

cnn1.weight f4 [32, 3, 3, 3]
00000000: 6cc2 84bf e329 85bf 68aa 68bf 22e4 60bf
00000010: d100 8bbf 775a 71bf 6761 97bf d1ba 8fbf
00000020: d1dc 68bf 38b8 8fbf 0372 56bf 717d 90bf
00000030: 0796 85bf 4cc9 8fbf 7b03 58bf fe91 5dbf
00000040: 3ebc 5abf 4137 60bf 4694 53bf 134f 85bf
00000050: 95b5 7dbf 2cb5 95bf 404a 76bf 04f9 92bf
00000060: 7bd7 55bf 8bdc 87bf ac4a 62bf ca46 5fbf
00000070: 00ee 84bf 4a75 8dbf 7283 7cbf 27f6 89bf
00000080: 84e3 85bf cfa9 72bf 9ecb 8fbf 50d1 97bf
00000090: c8ef 67bf 516e 83bf cbf0 78bf b5d7 95bf
000000a0: ef62 90bf f792 54bf 169a 67bf 3af3 79bf
000000b0: f7e0 57bf cb48 94bf cfca 54bf 385f 7fbf
000000c0: 830e 80bf 7cff 6abf d13e 86bf c2d8 80bf
000000d0: b115 91bf e544 8abf 47e7 80bf 9264 73bf
000000e0: a8cd 86bf fcfc 69bf 8b11 72bf 5755 95bf
000000f0: b79e 66bf 0be0 5abf ea95 93bf 51a4 54bf
00000100: c0fc 8cbf d764 8abf bbe3 54bf 0d65 80bf
00000110: bfee 66bf 1c91 81bf 28eb 80bf ee5f 88bf
00000120: 28f6 59bf dc54 87bf 3eca 84bf 92ea 7abf
00000130: 853f 5bbf 4685 81bf 595a 8bbf 62b5 77bf
00000140: 5151 8fbf 645e 6b3f 72ac 933f b072 503f
00000150: 5ddc 7e3f 3065 943f 7cc9 593f 4df3 8c3f
00000160: 66da 883f 3fe6 663f 5d73 8e3f 6622 8e3f
00000170: 3767 963f ffbd 883f d552 963f 87f9 34bf
00000180: ded4 723f de1d 903f 2469 4f3f 0e6f 513f
00000190: 84c0 7b3f 82b2 513f 9131 6b3f b7f1 7b3f
000001a0: a1bf 86bf 086c 553f c54a 703f 639c 853f
000001b0: 7c09 603f 9827 853f fa15 773f 562a 8f3f
000001c0: 3301 923f 5c50 2a3f 63be 7b3f b6b3 733f
000001d0: 1cb6 75bf 427a 893f cdc8 8c3f 6764 72bf
000001e0: 981d 573f 71bb 783f fb39 76bf a804 7f3f
000001f0: 8073 8b3f c3b0 86bf 3bcf 8f3f 07cc 7b3f
00000200: 2022 8b3f 6ada 6d3f 8e8a 603f b93a 8d3f
00000210: ff7c 913f 2816 6c3f 008b 6a3f d589 56bf
00000220: 15c1 60bf 7965 6dbf 373f 53bf e155 90bf
00000230: b53c 80bf 37d4 51bf 496a 6abf 1639 8abf
00000240: d344 72bf 4ef2 57bf 5a57 8cbf 5f99 8bbf
00000250: 8ac6 8cbf 2595 50bf 5851 8abf 3a7b 6dbf
00000260: 761f 76bf ec00 8abf dad7 61bf db67 91bf
00000270: d7f3 51bf 0d92 5cbf 2b8f 81bf b341 8fbf
00000280: 9209 94bf 3dab 62bf 17d8 743f 014e 853f
00000290: b9a9 833f e631 4d3f 6721 5e3f 378d 793f
000002a0: c36a 773f 6810 5b3f 166b 803f 2ae3 583f
000002b0: ee3e 923f 599d 5f3f d15f 693f b157 843f
000002c0: 2644 973f 18c7 7f3f 1668 8b3f 37f4 913f
000002d0: 7a47 863f 5a0f 923f 165f 5a3f a74b 623f
000002e0: e4f9 7f3f 55ec 843f 0652 413f c8c9 4a3f
000002f0: 0670 533f 8d93 54bf f483 8fbf 561f 6ebf
00000300: e62f 53bf fe64 82bf 4458 95bf 52ea 74bf
00000310: c302 8dbf 8cfa 62bf 959c 83bf 0b2c 64bf
00000320: 1f82 88bf 4abe 93bf 1714 61bf 9f7c 51bf
00000330: c534 84bf bfb1 8cbf 8147 60bf 7204 69bf
00000340: 5cd6 5abf a834 7dbf a015 84bf 8e34 81bf
00000350: d71c 92bf f2ac 68bf ff1a 6ebf 2a5f 8cbf
00000360: 91f3 10be 484d 63bd 435a febd 6464 42bd
00000370: 1983 3cbe d0aa 193c 2681 2cbe e2ea 24be
00000380: e7d9 3d3e bd55 173e 842c 18be 601d ff3c
00000390: 2098 e93c d785 1bbe c070 a03b fa62 9c3d
000003a0: 4868 d43c 8c61 783d 2018 abbb 0810 12be
000003b0: 3533 f5bd 60f9 ddbc 20b2 d33b c0d2 b9bd
000003c0: 4e39 a23d 6081 0cbc 84dd 283d e623 753f
000003d0: c6df 913f 7bf4 873f 8427 843f a380 8d3f
000003e0: a8b6 8c3f cad0 5c3f 4d77 863f c22d 973f
000003f0: 1a02 8c3f 12f6 6e3f 6212 8f3f 3172 583f
-1.0371833 -1.0403408 -0.9088502 -0.87848103 -1.0859624 -0.94278663 -1.18266 -1.1228887
-0.9096194 -1.1228094 -0.8376772 -1.1288282 -1.043641 -1.1233306 -0.8438031 -0.8655089
-0.85443485 -0.8758431 -0.8264812 -1.0414757 -0.991052 -1.1695914 -0.96207047 -1.1482244
-0.8353192 -1.0614179 -0.8839519 -0.8721739 -1.0385132 -1.1051419 -0.9863807 -1.0778245
-1.0460057 -0.9479036 -1.1234014 -1.1860752 -0.9060025 -1.0268041 -0.9724242 -1.1706454
-1.1280192 -0.8303675 -0.9046949 -0.9763676 -0.84327644 -1.1584715 -0.8312196 -0.9975467
-1.0004429 -0.9179609 -1.048792 -1.0066149 -1.1334745 -1.0802275 -1.007058 -0.95075333
-1.0531511 -0.9140165 -0.9455802 -1.1666669 -0.9008593 -0.8549811 -1.1530125 -0.83063227
-1.1014633 -1.0812024 -0.8315999 -1.0030838 -0.9020805 -1.0122409 -1.0071764 -1.0654275
-0.8514123 -1.0572772 -1.037422 -0.98014176 -0.856438 -1.0118797 -1.0886947 -0.96761143
-1.1196691 0.91940904 1.1537001 0.81425 0.99555 1.159338 0.85073066 1.101175
1.069165 0.9019508 1.1128956 1.1104248 1.1750249 1.0682982 1.1744028 -0.7069325
0.9485606 1.1259115 0.81019807 0.8181008 0.9834063 0.81913006 0.9187251 0.984157
-1.052723 0.8336797 0.9386409 1.043835 0.8751447 1.0402708 0.9651791 1.1184795
1.1406616 0.6652887 0.9833738 0.9519609 -0.95981 1.0740435 1.099878 -0.9468445
0.8402953 0.9716101 -0.9618222 0.9961648 1.0894623 -1.0522693 1.1235117 0.98358196
1.0869789 0.929114 0.8771142 1.1033546 1.1366271 0.9222131 0.9161835 -0.83804065
-0.8779462 -0.9273296 -0.82518333 -1.1276208 -1.0018526 -0.8196444 -0.9156843 -1.0798671
-0.9463627 -0.843541 -1.0964158 -1.090618 -1.0998089 -0.81477576 -1.0806074 -0.92766154
-0.96141756 -1.0781531 -0.8821999 -1.1359819 -0.82012695 -0.86160356 -1.0121816 -1.1191925
-1.1565421 -0.8854254 0.95642227 1.041443 1.028617 0.80154264 0.8676972 0.974811
0.9664728 0.8557191 1.003268 0.84721625 1.1425455 0.8734947 0.9116183 1.0339261
1.1817672 0.9991317 1.089114 1.1402653 1.0490563 1.1410935 0.8530134 0.88396686
0.9999068 1.0384623 0.7551578 0.79214144 0.8259281 -0.83037645 -1.1212144 -0.93016565
-0.8249496 -1.018707 -1.1667562 -0.95670044 -1.1016468 -0.88663554 -1.028216 -0.89129704
-1.066471 -1.1542447 -0.8792128 -0.8183078 -1.0328604 -1.0991744 -0.87609106 -0.9102241
-0.85483336 -0.9890847 -1.03191 -1.0094163 -1.1415051 -0.90888894 -0.9300994 -1.0966542
-0.14155413 -0.055493623 -0.1241956 -0.04745902 -0.18409385 0.009379104 -0.16846141 -0.16105226
0.18540154 0.147788 -0.14860731 0.031141937 0.028514922 -0.15187775 0.0048962533 0.07636066
0.025928631 0.060639903 -0.005221382 -0.14263928 -0.119726576 -0.02709645 0.006460443 -0.090734005
0.07921086 -0.008575767 0.04122688 0.957579 1.1396415 1.0621485 1.0324559 1.1054882
1.0993242 0.86256087 1.0505158 1.1810839 1.0938141 0.93344223 1.1177485 0.8454924

cnn1.bias f4 [32]
00000000: b4cd 91bf f344 73bf 4eeb 63bf adb5 783f
00000010: cd31 603f 7d68 67bf 904d 7c3f 6ad8 6ebf
00000020: a885 0dbe 596a 6e3f a81a 4fbf 6db7 74bf
00000030: 63f7 8c3f 5e78 533f d305 8abf 3363 523f
00000040: e7f4 863f f10e 853f cfe3 8bbf 171c 803f
00000050: 28e7 1cbe 03e8 833f d644 823f eb37 64bf
00000060: 4bb4 73bf 6dd6 953f 3573 4ebf 9b4a 6abf
00000070: 4b93 81bf 46ca 503f dcf1 33be 2efb 94bf
-1.1390901 -0.95027083 -0.8903092 0.97152215 0.8757599 -0.9039381 0.9855585 -0.9329897
-0.13820517 0.93131024 -0.8090005 -0.95592386 1.1012996 0.8260554 -1.0783027 0.82182616
1.0543488 1.0395185 -1.0928897 1.0008572 -0.15322554 1.0305179 1.0177257 -0.89147824
-0.9519698 1.1706063 -0.8064454 -0.9152009 -1.0123075 0.81558645 -0.17572731 -1.1639154

cnn2.weight f4 [32, 32, 3, 3]
00000000: a24e 7ebf 4032 743f 16af 793f 7451 843f
00000010: 7156 7f3f 451d 873f bd7d 833f 502e 843f
00000020: 4d70 723f d670 70bf ba77 6ebf 25d2 813f
00000030: 0819 80bf 9ec4 783f 0093 62bf 9e26 7dbf
00000040: 64b6 6fbf 908b b13e c761 72bf 2e38 7dbf
00000050: 5bc2 82bf cd35 7fbf bc1e 73bf 6fed 75bf
00000060: 8701 83bf a9a7 82bf 5f5d 7fbf f8dd 84bf
00000070: 779e 86bf ec30 83bf 2863 81bf f3e6 81bf
00000080: b2c4 80bf 2310 82bf a01a 85bf 9b89 75bf
00000090: 7706 7dbf c506 713f 840a 813f da0a 7abf
000000a0: 471c 863f faf8 753f 52ae 80bf ef4f 793f
000000b0: 735c 863f a5a6 77bf f5f5 76bf 6aa0 71bf
000000c0: 2d55 86bf d6b4 80bf fbe1 80bf 3692 84bf
000000d0: 8428 86bf 42d0 82bf 7a0c b3be 9e5e 81bf
000000e0: 8278 80bf 1480 183f b235 703f e36f 703f
000000f0: e713 7d3f bf95 7cbf 6787 6e3f 2af6 82bf
00000100: 0de0 83bf d18a 74bf 5a77 80bf 509c 85bf
00000110: d7b3 7fbf a49e 7ebf c133 84bf 263e 7dbf
00000120: f827 32bd 22d6 14bd d174 473d 5036 60bb
00000130: 5e13 4abd dcb1 e9bc 023a 9e3c a27b 3ebd
00000140: 406b 31ba 665f 743f 9211 783f c719 783f
00000150: 7326 823f 6717 843f f642 773f 2a65 803f
00000160: 5333 803f ac9c 753f 7498 743f b62a 813f
00000170: 87f6 86bf 3e41 703f 9290 803f 7257 83bf
00000180: 1043 70bf 9aa6 7abf f571 75bf 932b 87bf
00000190: 5211 85bf 0de4 84bf dc24 7dbf e27e 75bf
000001a0: 0ff5 84bf 77bb 81bf 8ac4 72bf 43f1 76bf
000001b0: 4bd0 6e3f b65b 7bbf 40e2 803f bf6f 83bf
000001c0: 938f 71bf 7d59 80bf e287 7dbf 0e23 84bf
000001d0: c41f 80bf 84ef 81bf e9eb 7c3f c346 803f
000001e0: 7048 84bf c71d 833f abd2 823f 1216 86bf
000001f0: 4438 743f aa69 833f 6774 7ebf d68e 83bf
00000200: 6ba5 86bf 7a9b 78bf 3e13 80bf 1560 73bf
00000210: 906f 84bf c78e 79bf 4ff4 843f 452c 78bf
00000220: cb97 853f 41d6 833f 1083 7dbf c1b5 793f
00000230: 2d37 723f 9563 773f 3b37 713f da3a 823f
00000240: fe0a 81bf 3035 85bf af5c 71bf b611 80bf
00000250: f857 80bf 0a99 71bf 937b 7ebf c58e 73bf
00000260: 64d4 81bf 562c 80bf 14a2 73bf dd9c 83bf
00000270: db15 81bf bece 78bf 544b 86bf 7dd0 74bf
00000280: b3bb 81bf 811d 85bf 33c6 6fbf acae 73bf
00000290: c38a 613f 09e0 81bf 0d19 743f 0bbf 6c3f
000002a0: 472e 6a3f 220d 45bf bab5 6d3f 1ecc 83bf
000002b0: 7423 74bf c0ef 7ebf 8849 7fbf c4fd 84bf
000002c0: e1c5 80bf 747f 7cbf 6a5a 81bf 6eeb 7bbf
000002d0: f847 a2bc 9ec1 8d3c a09b 6ebb f0ae f5bc
000002e0: f1a6 043d 5cea 4b3c a052 aabb 8aab f13c
000002f0: d67b fcbc 21ff 77bf c408 7abf f4b2 86bf
00000300: 7c9b 85bf aa34 83bf aae9 82bf ad51 77bf
00000310: 330b 85bf 3007 72bf ad28 84bf e192 73bf
00000320: 2b77 7dbf 43ed 7f3f 261b 7d3f f202 34bf
00000330: 2bab 833f ee50 85bf 7f18 84bf 49de 79bf
00000340: f854 82bf 2801 74bf d3e0 85bf 8e44 83bf
00000350: b970 80bf 30c0 74bf 23dc 86bf d318 76bf
00000360: b480 243c 0c16 26be 516c 4cbd 50ca 46bd
00000370: d5e9 59be 829f 333e f3ed 12bd 6437 133c
00000380: 3b3a 1d3d fbed 84bf 201f 77bf 8b53 75bf
00000390: dc0b 83bf 324a 87bf 34bd 82bf f1d0 81bf
000003a0: c601 87bf e895 7bbf 37e1 6bbf f0d0 80bf
000003b0: 0f51 783f 2441 74bf 2f2c 81bf 92a2 753f
000003c0: 322c 78bf de4a 75bf 1e3a 75bf 4de8 85bf
000003d0: b425 76bf d27e 78bf aeec 70bf de40 72bf
000003e0: 25e1 82bf d230 82bf 9409 74bf 99d3 71bf
000003f0: af98 71bf 6821 73bf 3362 77bf 8f52 77bf
-0.99338734 0.95389175 0.97532785 1.0337358 0.99741274 1.0555807 1.0272747 1.0326633
0.9470261 -0.93922174 -0.9315144 1.0142256 -1.0007639 0.97175014 -0.88505554 -0.9888705
-0.9363768 0.3467679 -0.94680446 -0.9891385 -1.0215563 -0.9969147 -0.9496877 -0.9606542
-1.0234841 -1.0207416 -0.9975185 -1.038024 -1.051711 -1.0249305 -1.0108385 -1.0148605
-1.0060027 -1.0161175 -1.039875 -0.95913094 -0.9883799 0.94150954 1.0081334 -0.9767281
1.047738 0.96083033 -1.0053198 0.97387594 1.0496963 -0.96738654 -0.9646905 -0.943854
-1.0494744 -1.0055187 -1.0068964 -1.035712 -1.0481114 -1.0219805 -0.34970456 -1.0107
-1.0036776 0.5957043 0.9383193 0.93920726 0.98858494 -0.98665994 0.9317536 -1.0231373
-1.030275 -0.9552432 -1.0036423 -1.0438328 -0.9988379 -0.99460816 -1.0328294 -0.98922956
-0.04349515 -0.036337025 0.04869539 -0.003421206 -0.049334876 -0.028527193 0.01931477 -0.046504624
-0.00067679957 0.95458066 0.9690181 0.96914333 1.0167984 1.0319642 0.9658655 1.0030873
1.0015663 0.9594219 0.95545125 1.0091159 -1.0543984 0.9384955 1.0044119 -1.0261061
-0.9385233 -0.97910464 -0.9587701 -1.0560173 -1.0395911 -1.0382096 -0.9888437 -0.9589673
-1.0387286 -1.0135335 -0.94831145 -0.96461886 0.9328658 -0.98186815 1.0069046 -1.0268477
-0.943597 -1.002731 -0.99035466 -1.0323198 -1.0009694 -1.0151219 0.9879747 1.0021595
-1.0334606 1.0243462 1.0220541 -1.0475485 0.95398355 1.0266621 -0.99396366 -1.0277965
-1.0519232 -0.9711224 -1.0005872 -0.95068485 -1.0346546 -0.97483486 1.0387057 -0.9694255
1.0436949 1.029976 -0.9902811 0.9754296 0.9461544 0.96636325 0.942249 1.017421
-1.008148 -1.0406857 -0.9428205 -1.0005405 -1.0026846 -0.94374144 -0.9940731 -0.95139724
-1.0142941 -1.001353 -0.95169187 -1.0282246 -1.0084795 -0.97190464 -1.0491738 -0.9563063
-1.0135406 -1.0399629 -0.93661803 -0.95188403 0.8810236 -1.0146495 0.95350724 0.9247901
0.91476864 -0.76973164 0.9285542 -1.0296667 -0.953666 -0.9958458 -0.99721575 -1.0389943
-1.0060388 -0.9863198 -1.0105717 -0.9840611 -0.019809708 0.017304238 -0.0036408678 -0.029990643
0.03238577 0.012446012 -0.005197838 0.029500742 -0.030820768 -0.9687367 -0.97669625 -1.0523362
-1.0438075 -1.0250447 -1.0227559 -0.96609 -1.0394043 -0.9454222 -1.0324913 -0.95145994
-0.9900996 0.9997141 0.9886955 -0.70316994 1.0286611 -1.0415323 -1.0319976 -0.97604805
-1.018218 -0.95314264 -1.0459236 -1.0255296 -1.00344 -0.95605755 -1.053593 -0.9613163
0.010040451 -0.16219348 -0.049907986 -0.048532784 -0.21280606 0.17541316 -0.035871457 0.008985374
0.03838561 -1.0385126 -0.9653187 -0.958306 -1.0237994 -1.0569518 -1.021399 -1.0141889
-1.0547416 -0.98275614 -0.92140526 -1.0063763 0.96998686 -0.95411897 -1.0091609 0.9595119
-0.96942437 -0.95817363 -0.95791805 -1.0461518 -0.9615128 -0.9706851 -0.94111145 -0.9463023
-1.0224959 -1.0171149 -0.95327115 -0.944635 -0.943736 -0.9497285 -0.96634215 -0.9661035

cnn2.bias f4 [32]
00000000: 5035 80bf 78f1 7c3f 2a65 873f 0ab9 83bf
00000010: 23f8 863f d06d 813f 9e65 763f 1a30 80bf
00000020: 9c5b 813f 368c 80bf 1c56 723f 7af9 7d3f
00000030: 2f3b 86bf f5f6 77bf 6098 803f 32d7 84bf
00000040: b9fe 80bf a6a5 9ebc 2022 803f 8770 76bf
00000050: eeb7 71bf 6f7c 76bf a9f7 793f 003d 733f
00000060: 2f96 7dbf 9606 7fbf c664 86bf d4ef 7abf
00000070: 4ff0 83bf 412f 7cbf 24d6 81bf b6c8 80bf
-1.001627 0.9880595 1.0577748 -1.0290844 1.0544475 1.0111637 0.96248806 -1.001468
1.0106082 -1.0042789 0.9466264 0.99208796 -1.0486811 -0.968612 1.0046501 -1.0378172
-1.0077735 -0.019366097 1.0010414 -0.96265453 -0.9442128 -0.9628362 0.97643524 0.95014954
-0.99057287 -0.99619424 -1.0499504 -0.980222 -1.0307711 -0.98509604 -1.0143476 -1.0061252

cnn3.weight f4 [64, 32, 3, 3]
00000000: 68a2 773f ecfb 823f 71ec 703f 5cf1 77bf
00000010: def3 813f 1448 833f 5977 83bf 4a5b 86bf
00000020: f393 763f c1fb 743f 6be0 7e3f a67a 843f
00000030: 603b 863f 2eee 833f 6bac 803f 5949 803f
00000040: b207 81bf 1fea 83bf 9b4f 833f dd57 833f
00000050: c4c8 7d3f 5bb2 863f 7e10 723f 3f61 813f
00000060: 81eb 833f 9923 7cbf 09d4 553f 4c19 b8be
00000070: a65e a83c e46e 3d3c 97f3 023f 464e fd3e
00000080: dccd 4f3c f83b 253f a045 94be 9bb5 72bf
00000090: e3b1 823f 8915 7f3f 8df7 753f 6cb4 723f
000000a0: 8e12 853f 1bdf 81bf 31ef 70bf 3d7e 853f
000000b0: a2b1 7c3f a534 743f 6de2 833f a041 6e3f
000000c0: 0572 7d3f 014e 823f d7f6 78bf 0843 73bf
000000d0: 1645 7ebf 2465 7fbf 7b40 7f3f 2db3 7e3f
000000e0: 41d5 823f 099c 843f 851b 773f 0d14 803f
000000f0: 1535 843f 7c02 753f 4920 803f 55b6 743f
00000100: 4fe8 703f 0009 773f f5a5 7f3f 415e 7c3f
00000110: 06f8 76bf 86b5 853f 7842 813f 6aa1 84bf
00000120: 05d2 7e3f 71d3 7cbf 618e 753f 5150 87bf
00000130: 2207 72bf 913b 7ebf 42c9 84bf 3431 87bf
00000140: bccb 7dbf e363 eb3e 7fc4 d6be 4c94 a03e
00000150: e798 3d3f 9989 54bf 333c 27be ba5e 20be
00000160: 8d4f 51bf 2836 29bf db12 80bf 38a1 6d3f
00000170: 879b 4cbf 1ec5 60bf 89b4 51bf 1bdd 68bf
00000180: 449b 6fbf 1bc1 61bf 3046 393f b170 773f
00000190: f3b3 52bf dce7 b23e e76b 5c3f 54cf 6bbf
000001a0: 2018 423f ca78 68bf 0551 113f abf0 033f
000001b0: d0ce 743f 023a 843f 08a8 833f 3764 873f
000001c0: 4ca7 7d3f de50 803f 4a35 81bf 07e9 83bf
000001d0: 9f9e 7c3f 74e9 703f c10f 863f 1313 7a3f
000001e0: d736 7d3f 2401 7e3f 4882 80bf 77cc 783f
000001f0: 8a34 733f 820c 7c3f 4310 793f 9615 82bf
00000200: 89f2 7d3f 5818 7cbf d2ad 75bf 9a7b 86bf
00000210: 3701 80bf efd8 82bf 9a81 81bf 5794 6b3f
00000220: f8e0 86bf d746 78bf 5c29 73bf d0fa 86bf
00000230: 867d 72bf e210 7ebf 5de7 72bf 1c75 76bf
00000240: 8518 863f 5d0d 763f 2646 813f 5d7c 783f
00000250: 40ce 61bf 27e9 823f 0b40 713f a5dc 82bf
00000260: 4dda 7abf 550b 53bd 6669 35bd 9057 64bb
00000270: 423b febc ba3b 933c 4be9 54bd 810e 303d
00000280: 7818 993b 188a 25bd 905a 68bf d831 423f
00000290: 322d 6f3f b106 6d3f 98df 783f f758 6d3f
000002a0: cfa6 513f 3c2d 833f 78af 6d3f 63b9 6f3f
000002b0: 623c 713f 206a 7dbf 4c5e 853f 90bf 6abf
000002c0: e9a4 623f 5a1b 7e3f ac54 823f 909f 84bf
000002d0: 33e4 81bf 0c83 61bf 8f16 7e3f 3b1e 72bf
000002e0: 21d0 66bf 35d3 53bf 44f1 74bf ab82 6fbf
000002f0: 97c6 74bf a44b 7b3f d783 853f 933c 72bf
00000300: e359 723f 484b 85bf 72e8 75bf d579 863f
00000310: b303 87bf 44ff 79bf 7a73 823f 7794 813f
00000320: fa07 733f 8b4a 7f3f a8e0 783f 906b 77bf
00000330: 9a2e 83bf 4d9b 7ebf 2457 6fbf 795c 6e3f
00000340: 818f 5d3f 3d6d 7f3f cf13 77be 3311 2dbf
00000350: f439 743f 0e2d 74bf c035 17bf 1b54 823f
00000360: 2453 863f c28b 463f c888 863f e131 85bf
00000370: d2f7 82bf e42e 6f3f 9cb2 82bf 2fe7 78bf
00000380: ce52 81bf 6670 823f 1a70 753f 1398 783f
00000390: 1534 6e3f dbb4 793f bce2 473f 0ed1 7ebf
000003a0: 24de 81bf d52e 84bf 0f35 2e3f 8b86 7d3f
000003b0: f9ea 7c3f e18c 83bf 9c10 863f 8ce3 83bf
000003c0: 62d4 73bf 2735 6fbf 9a79 80bf 1a9c 7c3f
000003d0: cae1 803f 3417 76bf 6d50 773f 351f 823f
000003e0: a2db 75bf 41ad 763f 9925 86bf 67b9 7abf
000003f0: 32b2 6d3f b2fe 5f3f 5415 6d3f 611d 6cbf
0.9673219 1.023313 0.9411078 -0.9685266 1.0152547 1.0256371 -1.0270797 -1.0496609
0.963195 0.95696646 0.99561185 1.0349929 1.048687 1.0307062 1.0052618 1.0022384
-1.0080473 -1.0305823 1.0258669 1.0261189 0.9913447 1.052318 0.94556415 1.0107802
1.0306245 -0.9849182 0.83526665 -0.359568 0.020552944 0.011562083 0.5115294 0.4947378
0.012683358 0.6454463 -0.2895937 -0.9480836 1.0210537 0.99642235 0.9608086 0.9480655
1.0396287 -1.0146211 -0.9411498 1.042915 0.98708546 0.9539283 1.0303475 0.93068886
0.99002105 1.0180055 -0.9725165 -0.95024157 -0.99324167 -0.99763703 0.99707764 0.9949215
1.022133 1.0360118 0.96526366 1.0006119 1.0328699 0.95706916 1.0009853 0.95590717
0.94104475 0.9649811 0.99862605 0.9858132 -0.96472204 1.0446022 1.009841 -1.036176
0.99539214 -0.98760134 0.9592038 -1.0571386 -0.94542134 -0.9930964 -1.0373919 -1.0561891
-0.99139 0.45974645 -0.4194679 0.31363142 0.74061435 -0.8302246 -0.16331558 -0.15661135
-0.8176201 -0.6609826 -1.0005754 0.92824125 -0.79924816 -0.87800777 -0.819161 -0.9096238
-0.9359629 -0.8818528 0.7237272 0.9665633 -0.8230583 0.3494252 0.86102146 -0.9211323
0.7581806 -0.9080931 0.5676425 0.51539105 0.9562807 1.0330203 1.0285654 1.0577458
0.990834 1.0024679 -1.0094388 -1.0305489 0.98679537 0.9410622 1.0473558 0.97685355
0.98911804 0.9922049 -1.0039759 0.9718699 0.95002043 0.98456585 0.9729044 -1.0162838
0.99198204 -0.98474646 -0.95968354 -1.050647 -1.0000371 -1.0222453 -1.0117676 0.92023224
-1.0537405 -0.96983093 -0.94984984 -1.0545292 -0.94722784 -0.9924451 -0.9488428 -0.96272445
1.0476233 0.9611414 1.0099533 0.97064763 -0.8820534 1.0227402 0.94238347 -1.0223585
-0.9798935 -0.05152448 -0.04428997 -0.003484223 -0.031034116 0.017972816 -0.051980298 0.042982582
0.0046721064 -0.0404149 -0.9076319 0.75857306 0.9342834 0.92588335 0.97216177 0.92713875
0.81895155 1.024818 0.9284587 0.9364225 0.9423276 -0.9899006 1.0419402 -0.9169855
0.8853288 0.99260485 1.018209 -1.0361195 -1.0147766 -0.88090587 0.9925317 -0.9457738
-0.9016133 -0.8274415 -0.9568064 -0.9355876 -0.95615524 0.98162293 1.0430859 -0.9462368
0.94668406 -1.0413599 -0.9605781 1.050593 -1.0548004 -0.9765513 1.0191491 1.0123433
0.94934046 0.9972312 0.972178 -0.966485 -1.0248597 -0.9945572 -0.9349234 0.9310985
0.86547095 0.9977606 -0.2412865 -0.6760437 0.9540093 -0.9538125 -0.5906639 1.0181917
1.0494123 0.77557003 1.0510492 -1.0405847 -1.0231879 0.93430924 -1.0210757 -0.9722776
-1.0103395 1.0190551 0.9587418 0.97107047 0.9304822 0.9754159 0.78080344 -0.9953774
-1.0145917 -1.0326792 0.6804971 0.9903342 0.9879604 -1.0277368 1.0473819 -1.0303817
-0.95245945 -0.9344048 -1.003711 0.9867569 1.0068905 -0.96129155 0.96607095 1.0165774
-0.9603826 0.96358114 -1.0480224 -0.9793915 0.9285003 0.8749801 0.9261067 -0.9223233

cnn3.bias f4 [64]
00000000: 89cc 75bf 1a71 7bbf cb1c 803f c825 813f
00000010: 347a 48bd 4485 763f 2e0e 74bf 9e39 0abd
00000020: 59fb 7f3f 76f3 863f 6edb 7abf 02ea 70bd
00000030: 5c8c 79bf 7f80 7bbf c42a 803f 7261 753f
00000040: 5658 7a3f 60c7 7a3f 9e00 783f 3df4 7dbf
00000050: 7145 813f a825 813f ec24 84bf 8f8e 73bf
00000060: 60a9 80bf 347c 733f aff6 823f 23f8 7c3f
00000070: d4aa 7e3f f224 73bf 7b12 873f 121c 873f
00000080: 52e3 84bf 9457 7a3f a5f8 6fbf b56a 87bf
00000090: 2671 83bf d6bc 63bd 71a2 86bf 2f17 623f
000000a0: e0d3 7a3f d43d 713f 72e3 72bf 9c41 863f
000000b0: bd94 853f 2e38 86bf 210d 84bf 1be4 29bd
000000c0: e93f 78bf 2fd0 71bf 11ee 83bf ba7e 7bbf
000000d0: 9978 82bf 1dc1 833f 4bea 7fbf 2be1 7fbf
000000e0: 8faa 7d3f d488 7bbf 0437 81bf bcd6 7cbf
000000f0: de19 803f 3cb2 7cbf 83f7 55bd d984 843f
-0.9601522 -0.98219454 1.0008787 1.0089655 -0.048944667 0.962971 -0.95334136 -0.033746354
0.999929 1.0543048 -0.97991073 -0.058816917 -0.97479796 -0.98242944 1.0013051 0.95851815
0.9779104 0.9796047 0.9687594 -0.99200803 1.0099317 1.0089617 -1.0323768 -0.951394
-1.0051689 0.95111394 1.0231532 0.98816127 0.99479413 -0.9497825 1.0552515 1.0555441
-1.0381873 0.97789884 -0.93738776 -1.0579439 -1.0268905 -0.05560001 -1.0518323 0.88316625
0.97979546 0.9423497 -0.94878304 1.0488772 1.0436016 -1.0485895 -1.0316507 -0.041477304
-0.9697252 -0.9445829 -1.0307027 -0.98240244 -1.0193053 1.0293308 -0.9996688 -0.99952954
0.99088377 -0.9825566 -1.0094914 -0.9876516 1.0007894 -0.98709464 -0.052238 1.0353042

fc1.weight f4 [2, 12544]
00000000: cb71 7d3f faf7 7f3f 809d 773f 21e9 7f3f
00000010: 1864 80bf 5444 7ebf 90fe 7dbf 9f8d 80bf
00000020: 0102 80bf 4a0f 80bf debe 80bf df51 7ebf
00000030: 3f03 80bf fccd 7dbf 03ee 80bf b132 7fbf
00000040: d20f 7e3f cb66 80bf f640 7ebf f4b6 7ebf
00000050: 0c1e 7fbf a17d 7ebf 976e 7ebf 4b88 7fbf
00000060: c989 80bf d945 80bf 674c 80bf dfbb 7fbf
00000070: 6f68 7ebf 62f1 7ebf 960b 7e3f d58b 7f3f
00000080: 3f5f 7ebf 11a3 7ebf c8b1 7ebf 6ee4 80bf
00000090: 088a 80bf 75f3 7ebf 40d9 7dbf 6975 7fbf
000000a0: 7f91 80bf a4e0 7d3f d871 80bf b574 80bf
000000b0: 094d 803f 6843 7ebf f10d 81bf eebd 7dbf
000000c0: fdba 80bf 7120 7e3f 48d5 7dbf 9874 7fbf
000000d0: c992 80bf c33f 80bf 8dab 803f 42c4 80bf
000000e0: fa61 80bf dfaf 7ebf 28e6 80bf 2870 7dbf
000000f0: e22b 7d3f 6a38 7ebf 699c 743f ac7a 7fbf
00000100: 4eca 80bf 669f 80bf 306d 7ebf 8583 7fbf
00000110: 5d50 80bf 0be7 80bf 3775 80bf 0086 80bf
00000120: 0766 803f 8c23 803f 981b 803f 8c42 75bf
00000130: 167b 7ebf 2901 81bf 476c 80bf 36e0 7fbf
00000140: 1dec 7fbf 73d7 7dbf 1308 7fbf af7f 7fbf
00000150: 9700 81bf 3fed 7dbf 18ca 7fbf 8b90 7f3f
00000160: d422 803f 1a65 7f3f 5302 80bf 6253 7f3f
00000170: 3178 7ebf 8ed5 7fbf 024b 7bbf 15ac 7ebf
00000180: b3b0 7dbf 7478 7ebf 94b5 80bf b0ef 80bf
00000190: bc43 7a3f 3b56 7e3f 5e60 7e3f cc4b 803f
000001a0: e1c2 7dbf 8924 7f3f eb45 7f3f d3e7 803f
000001b0: 5f43 803f c2d8 7ebf 9509 7fbf cca2 7ebf
000001c0: c228 80bf 7eee 7ebf 0523 80bf 25ea 803f
000001d0: 2ff0 7e3f 336e 803f 881d 7e3f e2b9 803f
000001e0: d507 7e3f 7d54 7e3f 95b8 803f 8ce4 7f3f
000001f0: 1aa3 7ebf 61f6 7ebf 46d1 7dbf 8c9f 7ebf
00000200: 72e5 7d3f 8269 803f 5bc4 80bf 3204 81bf
00000210: 77a5 7ebf b7f9 7ebf 9849 763f 8f79 803f
00000220: 8216 7e3f 9c37 7f3f 2b77 80bf 01ef 7fbf
00000230: 6b49 7fbf c2f2 763f 16fe 803f 14d4 7ebf
00000240: 73c7 7ebf bcb4 7ebf 7616 7fbf a5df 80bf
00000250: d923 803f 5959 803f 7e21 803f 638e 7f3f
00000260: 1224 7e3f 4569 7fbf 7b28 7ebf 9d38 80bf
00000270: 15cd 7dbf 9865 7fbf 20d0 7fbf 51de 80bf
00000280: 3852 7ebf d703 80bf 2845 7fbf 458a 7f3f
00000290: e4e0 7f3f 5998 803f 4213 7f3f 030e 81bf
000002a0: 909c 80bf b4fb 80bf 380f 81bf 1a94 80bf
000002b0: 7ede 80bf 729c 80bf 1207 81bf 44c7 7fbf
000002c0: a9f0 7fbf ad83 803f 3d6e 7e3f 6615 7f3f
000002d0: a077 80bf 2e1b 7fbf 6107 80bf d77f 7ebf
000002e0: 19dd 7ebf a0cb 80bf e712 80bf 7d84 80bf
000002f0: 8e9e 80bf 52aa 80bf 6d9d 7ebf c20d 813f
00000300: 13ba 803f 1113 7f3f 0357 80bf 3c4c 80bf
00000310: 081d 7ebf 410d 81bf dae2 7d3f 5bf4 7fbf
00000320: f7df 7fbf fc3a 80bf 0170 7ebf 9ec7 7ebf
00000330: a6cf 80bf d414 7ebf 66ba 7dbf cff6 7fbf
00000340: dffb 7fbf ec24 80bf fafe 7ebf e5b7 7e3f
00000350: c083 803f 2c4c 7fbf 50b2 80bf c8b2 7dbf
00000360: 5c50 7fbf 950b 80bf 6041 7ebf b9e7 7fbf
00000370: e6cf 80bf d22a 7ebf 6bba 7ebf 95c9 80bf
00000380: b4c5 80bf 96f6 79bf c8b2 7dbf d0f7 80bf
00000390: c273 7fbf 886e 80bf c8f7 7dbf bbbb 80bf
000003a0: a431 7fbf fad9 80bf 2afe 7ebf 35e4 7ebf
000003b0: 17ad 80bf 1fef 7dbf e264 80bf 0b01 7ebf
000003c0: 881a 7fbf 12e7 7ebf ad36 80bf 0600 81bf
000003d0: fbc8 7ebf 23b6 80bf bea1 80bf f156 7fbf
000003e0: 0148 80bf 2478 80bf 064a 7ebf 293b 7ebf
000003f0: 4a00 7fbf 390a 7ebf 72ed 7f3f 57e9 803f
0.9900176 0.9998776 0.967247 0.999651 -1.0030546 -0.9932301 -0.99216557 -1.0043219
-1.0000612 -1.0004666 -1.0058248 -0.99343675 -1.0000991 -0.9914243 -1.0072635 -0.99686724
0.9924289 -1.003137 -0.9931787 -0.99497914 -0.9965522 -0.99410444 -0.99387497 -0.9981734
-1.0042049 -1.0021316 -1.0023316 -0.99896044 -0.99378103 -0.9958707 0.9923643 0.9982274
-0.99364084 -0.9946757 -0.9949002 -1.0069711 -1.0042124 -0.99590236 -0.9915962 -0.9978853
-1.0044402 0.991709 -1.0034742 -1.0035616 1.0023509 -0.99321604 -1.008238 -0.99117935
-1.0057064 0.9926825 -0.99153566 -0.9978728 -1.0044795 -1.0019459 1.0052353 -1.0059893
-1.00299 -0.9948711 -1.0070238 -0.9899926 0.98895085 -0.9930483 0.9555116 -0.9979656
-1.0061738 -1.0048645 -0.99385357 -0.9981006 -1.0024525 -1.0070509 -1.0035771 -1.0040894
1.0031136 1.0010848 1.0008421 -0.9580467 -0.99406564 -1.0078479 -1.0033044 -0.99951494
-0.99969655 -0.99156874 -0.99621695 -0.99804205 -1.0078305 -0.99190134 -0.99917746 0.9982993
1.0010629 0.99763644 -1.0000709 0.9973661 -0.9940215 -0.99935234 -0.9816133 -0.99481326
-0.99097747 -0.99402547 -1.0055413 -1.0073147 0.97759604 0.9935033 0.99365795 1.0023131
-0.99125487 0.99665123 0.9971606 1.0070747 1.002056 -0.99549496 -0.99623996 -0.9946716
-1.0012438 -0.9958266 -1.0010687 1.0071455 0.9958524 1.003363 0.9926381 1.0056727
0.992307 0.9934767 1.005633 0.9995811 -0.99467623 -0.99594694 -0.9914745 -0.994622
0.9917823 1.0032198 -1.0059923 -1.0079405 -0.9947123 -0.99599785 0.96206045 1.0037097
0.99253094 0.9969423 -1.0036367 -0.99974066 -0.997214 0.9646417 1.0077541 -0.99542356
-0.99523085 -0.9949453 -0.9964365 -1.0068251 1.001094 1.0027267 1.0010221 0.9982664
0.9927379 -0.99770004 -0.9928052 -1.0017277 -0.99141055 -0.99764395 -0.9992695 -1.0067846
-0.99344206 -1.0001172 -0.997149 0.9982036 0.9995253 1.0046493 0.9963876 -1.0082401
-1.0047779 -1.0076814 -1.0082769 -1.0045197 -1.0067899 -1.0047743 -1.0080283 -0.9991343
-0.99976593 1.0040184 0.9938696 0.99642026 -1.0036507 -0.9965085 -1.0002252 -0.9941382
-0.9955612 -1.0062141 -1.0005769 -1.0040432 -1.0048387 -1.0051978 -0.9945896 1.0082324
1.0056785 0.9963847 -1.0026554 -1.0023265 -0.9926305 -1.008217 0.99174273 -0.9998223
-0.9995112 -1.0018001 -0.99389654 -0.9952334 -1.0063369 -0.9925053 -0.99112546 -0.99985975
-0.999937 -1.0011268 -0.99607813 0.9949935 1.0040207 -0.99725604 -1.0054417 -0.99100924
-0.99731994 -1.0003535 -0.99318504 -0.99962956 -1.0063446 -0.9928409 -0.995032 -1.0061518
-1.0060334 -0.97641885 -0.99100924 -1.0075626 -0.9978601 -1.0033731 -0.9920621 -1.0057291
-0.9968512 -1.0066521 -0.99606574 -0.99566966 -1.0052823 -0.99192995 -1.0030787 -0.9922034
-0.9964986 -0.99571335 -1.0016686 -1.0078132 -0.9952542 -1.0055584 -1.004936 -0.9974204
-1.0021974 -1.0036664 -0.993317 -0.9930902 -0.99609816 -0.9923435 0.9997169 1.007121

fc1.bias f4 [2]
00000000: bf2e 80bf e8f4 80bf
-1.0014266 -1.007474
